KeyPointsDetection/number_recognition_model.pth (torch, 221370 bytes, 14 tensors)

block1.0.weight f4 [10, 3, 5, 5]
0	0x3dc84856	0.09779422
1	0xbd42ef9e	-0.047591798
2	0x3d3f5642	0.04671312
3	0x3a85cc6a	0.0010208015
4	0x3d8ab60e	0.067730054
5	0x3e18ad73	0.14909916
6	0x3b80d2ab	0.0039313636
7	0xbc7b5099	-0.01533904
8	0xbca03e07	-0.019560827
9	0x3cbb989a	0.022899915
10	0x3df83c81	0.12120915
11	0x3de01d70	0.10943115
12	0x3d7967e3	0.06089009
13	0x3e27a76d	0.16372462
14	0x3cda0fa4	0.026618786
15	0xbd057677	-0.03258368
16	0x3e2759fc	0.1634292
17	0x3e1c60c4	0.15271288
18	0x3e12b67e	0.14327428
19	0xbd1e448a	-0.038639583
20	0xbcd62b34	-0.026143648
21	0x3ddb8ad8	0.10719842
22	0x3c18f9b2	0.009336876
23	0x3d831547	0.06400543
24	0xba1fe3a8	-0.0006099292
25	0xbcdcc68d	-0.026950145
26	0x3d77069e	0.060309045
27	0x3d5a2020	0.053253293
28	0x3dc70c22	0.09719111
29	0x3e01c519	0.12672843
30	0x3da39167	0.07986718
31	0x3bb6c690	0.0055778697
32	0x3cdfe665	0.02733154
33	0x3d15fc7f	0.036617752
34	0x3d8c386e	0.068467006
35	0xbd324c6f	-0.043529924
36	0x3d69c72d	0.057074714
37	0x3d8fc464	0.070198804
38	0x3d63c800	0.055610657
39	0xbd97cc6a	-0.07412036
40	0xbc953cfb	-0.018217554
41	0x3d3a0814	0.04541786
42	0xbd93e752	-0.07221855
43	0xbce6a23f	-0.028153537
44	0xbd8e3b13	-0.06944861
45	0x3af47a90	0.0018652249
46	0x3dab6ab8	0.08369964
47	0xbc0ba995	-0.008524318
48	0xbdb946a7	-0.09046679
49	0x3d6007fb	0.05469511
50	0xbd9b752f	-0.0759071
51	0xbd2fc1e7	-0.04290953
52	0x3d5a738f	0.05333286
53	0x3df95cd6	0.1217591
54	0x3c0c16e0	0.008550376
55	0x3d09a5cd	0.033605386
56	0xbaabc710	-0.001310559
57	0x3d999925	0.07499913
58	0xbd9d9a66	-0.07695465
59	0x3d9c6446	0.07636313
60	0x3dcc2782	0.09968473
61	0x3de81775	0.11332599
62	0xbd6d10c5	-0.05787732
63	0x3d2d68bd	0.042336214
64	0xbdca859f	-0.098887675
65	0x3d5239ae	0.05132454
66	0xbd3a7abd	-0.04552721
67	0x3dba41e0	0.09094596
68	0x3d39a165	0.045319933
69	0x3dbce8ec	0.09224114
70	0xbd1c09a7	-0.038095143
71	0x3d6f1631	0.058370773
72	0xbd35d102	-0.04438878
73	0xbd21e925	-0.039528985
74	0xbd3ede9e	-0.046599023
75	0x3c4b425a	0.012405956
76	0x3adbbecc	0.0016765236
77	0x3ce4e361	0.027940454
78	0x3dd1a277	0.10236066
79	0x3dee04c3	0.11622002
80	0xbdab08e3	-0.083513044
81	0x3da00e74	0.07815257
82	0x3c691de5	0.014228319
83	0xbd81693a	-0.063188985
84	0x3dbb2354	0.09137598
85	0xbdbde2e2	-0.0927179
86	0x3d78169c	0.060568437
87	0xbda6a838	-0.08137554
88	0x3c1fb671	0.009748087
89	0x3de73636	0.11289637
90	0x3ce69668	0.028147891
91	0xbc73c38e	-0.014878167
92	0x3db65da6	0.08904581
93	0x3d2c72f5	0.04210182
94	0xbc8900ce	-0.016724017
95	0xbdede4c8	-0.11615902
96	0xbd1d7e4c	-0.038450524
97	0xbd7bbc42	-0.061458834
98	0x3c835fe6	0.016036939
99	0xbdcf651c	-0.10126707
100	0xbd9eb048	-0.07748467
101	0x3ce3d8f6	0.027813416
102	0x3ca9196f	0.02064201
103	0xbcc6dfdb	-0.024276664
104	0xbc970e77	-0.018439515
105	0xbe20e22b	-0.15711276
106	0xbd81e097	-0.06341665
107	0xbdd1e170	-0.10248077
108	0x3caf388f	0.021389274
109	0xbbf1b4df	-0.007376298
110	0xbc8cf23a	-0.017205346
111	0x3ce49b40	0.02790606
112	0xbc89c4ab	-0.016817411
113	0xbd812069	-0.0630501
114	0x3dad953e	0.08475731
115	0xbcbb8ef6	-0.022895318
116	0x3c502ea6	0.012706434
117	0x3d362e06	0.044477485
118	0xbcb2f06c	-0.021843158
119	0xbdd5e140	-0.10443354
120	0x3c55a532	0.013039874
121	0x398ed1bd	0.00027240618
122	0xbd23105e	-0.03981053
123	0x3c43b4ad	0.011944932
124	0x3d99a410	0.075019956
125	0xbd6dab75	-0.058024842
126	0x3bf66bfd	0.0075201974
127	0xbe140972	-0.14456728
128	0xbe08bd12	-0.13353375
129	0xbd33bd3d	-0.043881644
130	0xbd99e1a1	-0.075137384
131	0xbc12f2d6	-0.008969029
132	0xbd7b89ab	-0.061410587
133	0x3baaf1f9	0.0052168337
134	0xbe14db04	-0.14536673
135	0xbe15d2d8	-0.14631212
136	0xbe427fa2	-0.18994
137	0xbd92fed1	-0.071775086
138	0xbc628ef5	-0.013828029
139	0xbd10add8	-0.03532204
140	0xbdd6f151	-0.10495246
141	0xbe579192	-0.21051624
142	0xbd89ad86	-0.0672255
143	0xbc64df43	-0.013969245
144	0xbd819c96	-0.063286945
145	0xbe56a672	-0.20961931
146	0xbd2501b5	-0.04028483
147	0xbd55e83e	-0.052223437
148	0xbe20a309	-0.15687193
149	0xbd422c46	-0.047405504
150	0xbdd26f2a	-0.10275109
151	0xbe5a3a79	-0.21311368
152	0xbe88f9f8	-0.2675321
153	0xbd8af106	-0.06784253
154	0xbe6f3a1a	-0.23362008
155	0xbe60f9ac	-0.21970242
156	0xbdaf6320	-0.085638285
157	0xbd92cc6a	-0.07167895
158	0xbde22f91	-0.11044229
159	0xbe8ab4b9	-0.27091005
160	0xbd66941f	-0.056293603
161	0xbe4995fc	-0.19686121
162	0xbde74a5d	-0.112934805
163	0xbe23241f	-0.15931748
164	0xbe8bc19a	-0.27296144
165	0xbe1c9ceb	-0.15294234
166	0xbe4a18f2	-0.19736078
167	0xbdb16eac	-0.08663687
168	0xbe637896	-0.22213969
169	0xbe60f52f	-0.2196853
170	0xbe2b8d73	-0.16753177
171	0xbd870807	-0.06593328
172	0xbe1a290f	-0.15054725
173	0xbd7d4517	-0.061833467
174	0xbe49162f	-0.19637369
175	0xbe83af08	-0.25719476
176	0xbe01eb8c	-0.1268751
177	0xbe299453	-0.16560487
178	0xbe2bbdfa	-0.16771689
179	0xbda0664a	-0.0783201
180	0xbe421c60	-0.18956137
181	0xbdaf6b9b	-0.08565446
182	0xbd766399	-0.060153577
183	0xbdc41739	-0.09574742
184	0xbd822959	-0.06355543
185	0xbd525489	-0.05135015
186	0xbe69b1c1	-0.22821714
187	0xbde364de	-0.11103223
188	0xbe85ebcd	-0.26156464
189	0xbde6ce66	-0.11269836
190	0xbe5a223e	-0.21302125
191	0xbdd88cbb	-0.10573717
192	0xbdc3a5d9	-0.09553117
193	0xbe6f762e	-0.23384926
194	0xbdfde0df	-0.123964064
195	0xbe47909c	-0.19488758
196	0xbe30519c	-0.17218632
197	0xbe7dd453	-0.24788027
198	0xbdedccb8	-0.11611313
199	0xbdd7760f	-0.10520565
200	0xbe07fec8	-0.13280785
201	0xbe3fe294	-0.18738776
202	0xbe8e8845	-0.2783834
203	0xbe806b4f	-0.2508187
204	0xbdf9cf64	-0.1219776
205	0xbd971366	-0.07376747
206	0xbe6e7dc6	-0.23290166
207	0xbe1b6b18	-0.15177572
208	0xbe8005f7	-0.2500455
209	0xbe8b8e4f	-0.2725701
210	0xbe8ed1b6	-0.27894372
211	0xbe8ff0dc	-0.2811345
212	0xbdeeaaf8	-0.116537035
213	0xbe1ceef6	-0.15325531
214	0xbe8387e0	-0.25689602
215	0xbdaa04d7	-0.083017044
216	0xbdf28fe9	-0.11843855
217	0xbe27a249	-0.163705
218	0xbe8650ab	-0.2623342
219	0xbea1ec98	-0.3162582
220	0xbd8b3194	-0.06796566
221	0xbdf341ff	-0.11877822
222	0xbe25580c	-0.16146868
223	0xbe534189	-0.20630468
224	0xbe82c749	-0.25542668
225	0xbdc81628	-0.09769851
226	0x3cdffa08	0.027340904
227	0xbd90ea24	-0.07075909
228	0xbd9ecea3	-0.077542566
229	0x3d370acd	0.044688035
230	0xbda8bd51	-0.08239234
231	0xbd8fa858	-0.07014531
232	0xbdc332f7	-0.09531205
233	0x3d125f56	0.03573545
234	0x3d72e47b	0.059299927
235	0xbcba6f69	-0.022758203
236	0x3b159ea0	0.0022830144
237	0xbcaacc9a	-0.020849515
238	0x3d9bdedc	0.076108664
239	0x3c6ecbb9	0.014574938
240	0xbd11410c	-0.035462424
241	0xbde560eb	-0.11200126
242	0xbe00da91	-0.12583376
243	0x3d7addb0	0.061246574
244	0xbdbf2096	-0.09332387
245	0xbda9bc92	-0.0828792
246	0x3a8cd090	0.0010743309
247	0xbdbe50be	-0.09292744
248	0xbdd7e9e6	-0.105426595
249	0x3d744dac	0.059644386
250	0x3cce2c66	0.025167655
251	0xbbcfb530	-0.006338738
252	0xbb19b014	-0.0023450898
253	0x3c76bad1	0.015059189
254	0xbdf8a6f9	-0.121412225
255	0xbdf50899	-0.119645305

block1.0.bias f4 [10]
0	0x3bb5bb05	0.005545976
1	0x3ce24aa8	0.02762349
2	0xbe0c29e6	-0.13687858
3	0x3b289147	0.0025721358
4	0x3dacc10b	0.084352575
5	0x3cad7815	0.021175424
6	0x3ca57462	0.020197097
7	0x3d07169a	0.03298054
8	0x3d9bd027	0.07608061
9	0xbc9d6d8c	-0.019217275

block1.3.weight f4 [10]
0	0x3f7f556b	0.9973971
1	0x3f82a85b	1.0207628
2	0x3f7b4d97	0.9816527
3	0x3f81b4c7	1.0133294
4	0x3f7fdc95	0.99945956
5	0x3f75583f	0.9583778
6	0x3f852d65	1.0404478
7	0x3f7fcbba	0.9992024
8	0x3f7dac9c	0.99091506
9	0x3f7fb14a	0.99879897

block1.3.bias f4 [10]
0	0x3d83b8bc	0.0643172
1	0xbb3c21d3	-0.0028706684
2	0xbd827ff7	-0.063720636
3	0xbde68219	-0.11255283
4	0xbd39d043	-0.04536463
5	0x3b9a8533	0.0047155856
6	0xbd901d28	-0.07036811
7	0x3d071c45	0.032985944
8	0xbcc52274	-0.02406428
9	0x3bf692cd	0.0075248242

block1.3.running_mean f4 [10]
0	0x3f92c09f	1.1465033
1	0x3fc18495	1.5118586
2	0x40cc04b3	6.3755736
3	0x3fb187ed	1.3869606
4	0x405ccb2e	3.449901
5	0x405c8dfc	3.446166
6	0x3f62ab81	0.88542944
7	0x3f76d446	0.96417654
8	0x3fa85f76	1.3154132
9	0x3f9b7b8e	1.2147081

block1.3.running_var f4 [10]
0	0x405c40b1	3.4414485
1	0x40139e19	2.3065245
2	0x421f4e55	39.826496
3	0x3feda5d8	1.8566236
4	0x41373b22	11.451937
5	0x413756fc	11.458736
6	0x3f213205	0.6296695
7	0x40009f40	2.0097198
8	0x40935f3c	4.6053753
9	0x408cfbe8	4.4057503

block2.0.weight f4 [20, 10, 5, 5]
0	0x3d3d59ce	0.046228223
1	0x3d389d8f	0.045072135
2	0x3cfc1add	0.030774528
3	0xbaa8eadc	-0.0012887376
4	0xbda1b095	-0.078950085
5	0x3c7ea648	0.015542574
6	0x3d818d91	0.0632583
7	0x3c4662e3	0.012108537
8	0x3d078d24	0.033093587
9	0xbd0f4046	-0.034973405
10	0x3d8df4e8	0.06931478
11	0x3c10b424	0.008832011
12	0xbd377452	-0.044788666
13	0xbcc2c219	-0.023774194
14	0xbd2366bb	-0.039892893
15	0x3d38fccf	0.045162972
16	0xbd28e6b7	-0.04123565
17	0x3d83ee71	0.064419635
18	0xbb4edb8d	-0.0031563968
19	0x3a96b065	0.0011496661
20	0x3af1a2bb	0.0018435338
21	0xbd747408	-0.05968097
22	0xbc7ef935	-0.015562345
23	0xbd32d5d1	-0.043660942
24	0xbd2a0bc5	-0.04151513
25	0x3c83b886	0.016079199
26	0xbc6b6fef	-0.014369949
27	0xbc1ed331	-0.009693907
28	0x3ccce101	0.025009634
29	0x3c9d53d9	0.01920502
30	0xbc9a8aef	-0.018865077
31	0x3c2cab3d	0.010538873
32	0x3c240d19	0.010012888
33	0x3d3bfc52	0.04589493
34	0xbc938a72	-0.018010352
35	0x3d6f9e2a	0.058500446
36	0x3d8d58bb	0.069016896
37	0x3d905b82	0.07048704
38	0xbb875936	-0.004130508
39	0x3da69572	0.08133973
40	0x3d921acd	0.07134018
41	0x3d291396	0.041278444
42	0xbd0df53c	-0.0346577
43	0xbbba1bb5	-0.0056795725
44	0x3d0f0765	0.03491916
45	0xbc3e4936	-0.011614135
46	0x3d498d2b	0.049206894
47	0x3c5101be	0.012756763
48	0x3cda4344	0.026643403
49	0x3b0d6538	0.0021575224
50	0x3d76acea	0.060223497
51	0xbcd35105	-0.025795469
52	0x3d15f382	0.03660918
53	0xbc2a1118	-0.010380052
54	0xbc35645e	-0.011071293
55	0xbd2bcb6a	-0.041942038
56	0x3d6693e7	0.056293394
57	0x3cd6900c	0.026191734
58	0x3b9eb99d	0.004843904
59	0x3dab1a74	0.08354655
60	0xbd7ad314	-0.061236456
61	0x3d2a6768	0.041602522
62	0xbced1bcd	-0.02894392
63	0xbcb4b4c7	-0.022058858
64	0x3d1baa9c	0.038004503
65	0xbca86c67	-0.020559503
66	0xbd754f48	-0.05989006
67	0x3d0f46f3	0.03497977
68	0xbcf2cc6b	-0.02963849
69	0x3d9a62a6	0.07538347
70	0xbd858304	-0.0651913
71	0x3d4e73f7	0.05040356
72	0xbcd53784	-0.026027448
73	0xbb770832	-0.0037694094
74	0x3da437a6	0.080184266
75	0xbd463d60	-0.048398376
76	0x3d2b6ce3	0.04185189
77	0x3d2e9d2b	0.042630356
78	0x3d095ab3	0.033533763
79	0xbd0ad3bc	-0.033893332
80	0xbd9fa313	-0.07794776
81	0xbc3a61b3	-0.011375832
82	0xbce88684	-0.028384455
83	0xbd5a320c	-0.053270385
84	0xbb6de131	-0.0036297555
85	0xbcf3d432	-0.029764269
86	0xbd9ea4a1	-0.07746244
87	0x3c8248b8	0.015903816
88	0x3ce6160e	0.028086688
89	0xbd497877	-0.04918715
90	0x3cb703b6	0.022340637
91	0xbcdeb8ac	-0.027187668
92	0xbda9fcdc	-0.08300182
93	0xbd789132	-0.060685344
94	0xbbaa7387	-0.00520176
95	0xbdb02343	-0.08600476
96	0x3c9f9e96	0.0194848
97	0x3c8dc441	0.017305495
98	0xbd6874c1	-0.05675197
99	0xbd6f13db	-0.058368545
100	0x3c23df75	0.010002007
101	0xbbafed9c	-0.0053689014
102	0x3d24ffca	0.040283002
103	0xbd1024da	-0.035191394
104	0x3c942ccb	0.018087765
105	0xbd95785d	-0.07298348
106	0xbc841e90	-0.016127855
107	0xbd908503	-0.0705662
108	0x3d81c48d	0.06336317
109	0x3d4236f6	0.047415696
110	0xbcbc868e	-0.02301338
111	0xbbfd659f	-0.0077330614
112	0xbd93372f	-0.0718826
113	0xbd0e9c4d	-0.03481703
114	0x39d511aa	0.00040639687
115	0xbd87a7ec	-0.066238254
116	0xba554c05	-0.0008136633
117	0xbd4cdd2d	-0.050015617
118	0x3d525d76	0.051358663
119	0x3d941b18	0.0723173
120	0xbb57548e	-0.0032856795
121	0xbd22294d	-0.03959017
122	0xbd349123	-0.044083726
123	0x3d1af2f2	0.037829347
124	0xbcb76ce3	-0.022390788
125	0xbcfc1944	-0.030773766
126	0xbd6c3d67	-0.057675745
127	0xbbd52ff3	-0.00650596
128	0xbcbbf370	-0.022943228
129	0x3c25d010	0.010120407
130	0x3d3603d2	0.044437237
131	0xbd8b2a61	-0.067951925
132	0x3c84dbf2	0.01621816
133	0x3d19f406	0.037586235
134	0x3ca55f98	0.020187184
135	0xbd78c587	-0.06073525
136	0x3bd5ae7d	0.0065210448
137	0xbc544880	-0.0129567385
138	0xbcf9b7d0	-0.030483156
139	0x3dc1dcdb	0.09465953
140	0xbc543d97	-0.012954137
141	0xbbea855c	-0.007157011
142	0xbc68dacf	-0.014212324
143	0x3d9ba1f6	0.07599251
144	0x3d8874ad	0.06662879
145	0xbd6c62fb	-0.057711583
146	0xbcf42489	-0.029802578
147	0x3cd0a854	0.02547089
148	0x3ca5d493	0.020242965
149	0x3da21b2d	0.079153396
150	0xbd800829	-0.062515564
151	0xbc9a722a	-0.018853266
152	0xbd91fb6d	-0.07128034
153	0xbd89d110	-0.06729329
154	0x3d033372	0.032031484
155	0xbd5a3ab8	-0.053278655
156	0xbdae8237	-0.0852093
157	0xbdc42392	-0.09577097
158	0xbd4d29ec	-0.050088808
159	0x3b891394	0.004183242
160	0xbdb01125	-0.0859702
161	0xbdc0a990	-0.094073415
162	0xbd490139	-0.04907343
163	0xbda63a4a	-0.081165865
164	0x3cf9bf84	0.03048683
165	0xbd71260d	-0.05887418
166	0xbdc67ca5	-0.09691743
167	0xbbba8fef	-0.0056934278
168	0xbd8326cf	-0.064038865
169	0x3d61a2c3	0.055086862
170	0x3c6aa853	0.014322358
171	0xbd8648f0	-0.065568805
172	0xbd8f4bc6	-0.069968745
173	0xbd88786d	-0.066635944
174	0x3d34dcdc	0.04415594
175	0xbd2c1215	-0.042009432
176	0x3d63e683	0.055639755
177	0xbd7f11b3	-0.06227274
178	0xbd858bb6	-0.06520788
179	0x3c2ba186	0.010475522
180	0x3d8f6f2a	0.07003625
181	0xbcd5e7be	-0.02611148
182	0xbc454e73	-0.0120426295
183	0xbd44448f	-0.047916945
184	0xbd284154	-0.041077927
185	0xbcbbfc39	-0.022947418
186	0x3d8646c9	0.0655647
187	0x3c9c8dc4	0.019110568
188	0xbd9edf03	-0.0775738
189	0xbd1b1445	-0.037861127
190	0x3d61c939	0.05512354
191	0xba9ce89e	-0.0011971181
192	0xbd5c19ed	-0.053735662
193	0xbd767c17	-0.060176935
194	0x3ca1f30a	0.01976921
195	0x3c78eaf2	0.015192734
196	0xbc04b8b0	-0.008100674
197	0x3bd08552	0.0063635493
198	0xbd6335bb	-0.055471163
199	0x3a4c8fcb	0.0007803409
200	0x3d02a7a1	0.031898145
201	0xbd6f9c35	-0.05849858
202	0xbd2fe159	-0.042939518
203	0xbd0b513b	-0.034013014
204	0xbdb4c898	-0.08827323
205	0x3b6c8f04	0.0036095986
206	0x3d84924a	0.06473215
207	0x3d7b1bbd	0.06130575
208	0x3b779a3d	0.0037781142
209	0xbc19c481	-0.009385229
210	0xbbee2f7e	-0.007268845
211	0xbc4a81f4	-0.012360085
212	0x3d80223d	0.062565304
213	0xbbb1d6e6	-0.005427229
214	0x3c314fc1	0.0108222375
215	0x3c57725b	0.013149823
216	0xbc92c293	-0.017915046
217	0xbcdacffd	-0.026710505
218	0x3d17f44e	0.03709822
219	0xbda3a393	-0.07990184
220	0x3d9a28c6	0.07527308
221	0x3c9307af	0.017948
222	0x3d18fa45	0.03734805
223	0xbd65fc00	-0.05614853
224	0xbd8de018	-0.06927508
225	0xbd6cf57a	-0.057851292
226	0xbd76011b	-0.060059648
227	0xbcbc0da0	-0.022955716
228	0xbd22f9c5	-0.03978898
229	0xbd3d2328	-0.046176106
230	0xbd80a2b5	-0.06281034
231	0xbd0e6d0e	-0.03477197
232	0xbda25844	-0.079269916
233	0x3ce291c2	0.027657393
234	0xbd98ae12	-0.07455076
235	0xbbb0275b	-0.0053757853
236	0x3c76802f	0.01504521
237	0xbc615a0a	-0.013754377
238	0xbd1a5104	-0.03767492
239	0xbd8e40da	-0.06945963
240	0xbc4687f2	-0.012117373
241	0xbd8e477f	-0.069472305
242	0xbd49da46	-0.049280427
243	0x3c7f114f	0.0155680915
244	0xbd73540e	-0.059406333
245	0x3c574242	0.013138356
246	0x3ca73ea3	0.02041561
247	0xbd459691	-0.048239294
248	0x3bac61d4	0.0052606855
249	0xbd296d91	-0.041364256
250	0x3d32e89b	0.04367886
251	0x3d491674	0.04909368
252	0xbd6df5db	-0.058095794
253	0x3d1cac89	0.03825048
254	0x3be2a59b	0.0069167144
255	0xbc49a061	-0.012306304

block2.0.bias f4 [20]
0	0x3d75dd1b	0.060025316
1	0x3ce5356c	0.027979575
2	0xbd51b90d	-0.05120187
3	0xbd2466a6	-0.040136956
4	0xbca048a6	-0.019565891
5	0xbd5258d1	-0.051354233
6	0x3c8fde62	0.017562095
7	0x3d65a6c6	0.05606725
8	0x3cde87f7	0.027164442
9	0x3c0deb2f	0.008662029
10	0xbd3faa62	-0.04679335
11	0x3b6d6467	0.0036223175
12	0xbde0a061	-0.1096809
13	0xbb33599c	-0.0027366644
14	0x3c7ac62c	0.015306037
15	0xbd72f0f8	-0.059311837
16	0x3c83c7aa	0.016086418
17	0x3c89c1da	0.016816068
18	0xbd29967e	-0.041403286
19	0xbc90a5f0	-0.01765725

block2.3.weight f4 [20]
0	0x3f64ceda	0.8937813
1	0x3f5535f8	0.83285475
2	0x3f3e02da	0.742231
3	0x3f5519a9	0.8324228
4	0x3f66c7db	0.90148705
5	0x3f5c0266	0.8594116
6	0x3f7bcda9	0.9836069
7	0x3f5de5ae	0.8667859
8	0x3f51ccb7	0.81952995
9	0x3f4b4a39	0.7941013
10	0x3f49cc94	0.78827786
11	0x3f3ef629	0.7459436
12	0x3f4963ca	0.7866789
13	0x3f6626cb	0.89902943
14	0x3f64d6ba	0.89390147
15	0x3f40dd22	0.7533742
16	0x3f570208	0.83987474
17	0x3f47effe	0.78100574
18	0x3f6ab734	0.91685796
19	0x3f64c9fd	0.8937071

block2.3.bias f4 [20]
0	0x3cb02ed3	0.021506703
1	0xbe0a3a02	-0.1349869
2	0x3ce852d5	0.02835981
3	0x3aae6dd7	0.0013307881
4	0x3c7c51b2	0.015400337
5	0x3d500ff2	0.050796457
6	0xbd9670b7	-0.073457174
7	0x3d53bc9e	0.05169355
8	0x3dfa40a7	0.12219363
9	0xbd80695c	-0.06270096
10	0xbcc7f136	-0.02440701
11	0x3d294343	0.04132391
12	0xbd0b9b89	-0.034083877
13	0x3d869bb1	0.065726645
14	0xbd4d5ce1	-0.050137404
15	0xbd2d6760	-0.042334914
16	0x3d183775	0.037162263
17	0x3c8571a7	0.016289545
18	0x3db109cb	0.08644446
19	0xbd9158a4	-0.07096985

block2.3.running_mean f4 [20]
0	0x3f7ebc23	0.99505824
1	0x3f96830a	1.175874
2	0x403c5ab7	2.9430368
3	0x3f9142c3	1.1348499
4	0x3f779156	0.9670614
5	0x3f946957	1.1594647
6	0x3f8cf267	1.1011475
7	0x4004ac7c	2.0730276
8	0x3fdedea4	1.7411695
9	0x402ee7de	2.732902
10	0x3f98bf80	1.1933441
11	0x3f4f85e1	0.8106366
12	0x3f1a26f4	0.6021569
13	0x401652eb	2.348811
14	0x3f3eef5f	0.74584
15	0x4035059c	2.8284674
16	0x3fcbca57	1.5921124
17	0x402cc8f9	2.6997664
18	0x400c63d0	2.193592
19	0x401a3615	2.409551

block2.3.running_var f4 [20]
0	0x3fcdf04a	1.6088955
1	0x4006598c	2.0992155
2	0x410d6e2a	8.8393955
3	0x4020c77c	2.5121756
4	0x3ffaf948	1.9607325
5	0x3faa5414	1.3306909
6	0x3fd8d97e	1.6941373
7	0x41179208	9.473152
8	0x406acfeb	3.6689403
9	0x4136ac8d	11.417127
10	0x4017aad0	2.3698006
11	0x3fb72197	1.4307126
12	0x3f207f27	0.6269402
13	0x41365da8	11.397865
14	0x3f4557ba	0.77086985
15	0x4136e41b	11.43069
16	0x40b2556a	5.5729265
17	0x41413f9e	12.078032
18	0x41233845	10.201238
19	0x41126184	9.148808

fc.1.weight f4 [6, 8000]
0	0x3ac80f7a	0.0015263401
1	0x3ba17f94	0.0049285386
2	0x3c6b92b7	0.014378241
3	0xbaeefcb4	-0.001823327
4	0xbaf960c1	-0.0019026027
5	0x3bc85dff	0.006114721
6	0xbbdefd64	-0.006805109
7	0xbc8a1e07	-0.016860021
8	0xbc55f319	-0.013058447
9	0xbc09957a	-0.008397454
10	0x3a9e8964	0.0012095389
11	0xbc7e505e	-0.015522091
12	0xbbda681d	-0.0066652433
13	0xbcd55802	-0.026042942
14	0xbca97a56	-0.020688217
15	0xbb1839ee	-0.0023227888
16	0x3ca66ae2	0.020314638
17	0x3c3a662b	0.011376898
18	0x3cc386f0	0.023868054
19	0x3c26bc93	0.010176796
20	0xbb5a5332	-0.0033313748
21	0x3c47c345	0.012192552
22	0x3bf1aa26	0.0073750196
23	0x3c034e71	0.008014307
24	0xbb7c3b2d	-0.003848742
25	0x3b95830f	0.0045627425
26	0xbb4fbf12	-0.003169958
27	0xbb07575d	-0.0020651438
28	0xbbe046aa	-0.0068443613
29	0x3b1eca9c	0.0024229651
30	0x3c8e315e	0.017357524
31	0xbbe8ec1c	-0.0071082246
32	0xbc9a1d05	-0.018812666
33	0xbc9620ca	-0.018326182
34	0xbc51fbe1	-0.0128164
35	0x3a4e327a	0.0007865798
36	0x3b2a39f4	0.0025974484
37	0x3cd3bd1e	0.025847014
38	0x3c48b12a	0.01224927
39	0x3c6ece01	0.014575482
40	0x3bae2270	0.005314164
41	0x3c93fd33	0.01806507
42	0x3bf05e59	0.007335466
43	0xbb10420a	-0.0022012019
44	0x3bc54b30	0.006020926
45	0x3c9b0579	0.018923508
46	0x3ba39f0f	0.0049933265
47	0x3bf2c3b5	0.007408584
48	0x3bac516f	0.005258731
49	0xbaf13727	-0.0018403277
50	0x3c064953	0.008196193
51	0xbbbcdbe3	-0.005763517
52	0xbbfa7aec	-0.007644048
53	0xbcd93a05	-0.026516924
54	0xbc5b593a	-0.0133879725
55	0x3c3d013c	0.011535939
56	0x3c28a5e9	0.010293462
57	0x3c685381	0.014180065
58	0x3bc813e5	0.0061058872
59	0xbc49a89f	-0.012308269
60	0x3ba7acd8	0.00511704
61	0x3c6cba1d	0.01444867
62	0x3c374339	0.011185461
63	0xbba10522	-0.004913942
64	0xb962a192	-0.00021613229
65	0x3bbc4bca	0.0057463394
66	0x3b687a8c	0.0035473434
67	0x3bf68bad	0.007523975
68	0xbb9104df	-0.0044256295
69	0x3c32e387	0.010918505
70	0x3bde274b	0.0067795864
71	0x3c2f81c3	0.01071209
72	0xbc212924	-0.009836469
73	0xbc53ca1f	-0.012926607
74	0xbcbb381a	-0.0228539
75	0x3ba537e3	0.0050420626
76	0x3c827000	0.015922546
77	0x3ceaedcb	0.028677842
78	0x3c823ceb	0.015898189
79	0xbc529ab7	-0.01285427
80	0xbc35a12a	-0.011085788
81	0xbb02d967	-0.0019966008
82	0xbc2326df	-0.009957998
83	0xbc095f54	-0.008384544
84	0xbb255f70	-0.0025233887
85	0x3c88f16f	0.016716687
86	0x3c2e7eee	0.01065038
87	0x3b9f7aa0	0.004866913
88	0x3b5dd356	0.003384789
89	0x3c9b7f2a	0.018981535
90	0x3c85cf4c	0.016334198
91	0xbbe88282	-0.007095636
92	0x3b187602	0.0023263698
93	0xbcc2bca5	-0.023771593
94	0xbcbe11e0	-0.023201883
95	0x3c13d4ab	0.009022872
96	0x3bd03f43	0.0063551976
97	0x3bd2c25d	0.0064318613
98	0x3c3f3e90	0.011672631
99	0xbc7a4b19	-0.015276694
100	0xbab85c9b	-0.0014065685
101	0xbc10fed1	-0.008849815
102	0xbc801e2b	-0.015639385
103	0xbbe313d0	-0.006929852
104	0x3b1fd85c	0.0024390435
105	0x3ac5336d	0.0015045233
106	0x3c1d62ea	0.0096061025
107	0x3c7f3803	0.015577319
108	0xbab46090	-0.0013761688
109	0x3ba96858	0.0051699094
110	0xbb976150	-0.004619755
111	0x3b47173a	0.0030378834
112	0xbb916293	-0.0044368
113	0xbc87a838	-0.016559705
114	0xbcba5009	-0.022743242
115	0xb9adc3ea	-0.000331431
116	0x3c8a5946	0.016888272
117	0x3ca29acf	0.01984921
118	0x3b905875	0.004405076
119	0xbbce36ff	-0.006293177
120	0xbc11ca99	-0.008898401
121	0xbc585e71	-0.01320611
122	0xbcc7dfd3	-0.02439872
123	0x3b04f8c5	0.002028988
124	0xba0dd45d	-0.0005410368
125	0x3baceae7	0.005277026
126	0x3c6b52aa	0.01436297
127	0xbaae8e96	-0.001331764
128	0x3bb10c36	0.005403067
129	0xbc2e308b	-0.010631691
130	0xbb1038d2	-0.0022006524
131	0xbbd8887a	-0.006608066
132	0xbcbce08c	-0.023056291
133	0xbb94ac6d	-0.0045371563
134	0xbc56b476	-0.013104549
135	0x3c59f686	0.013303405
136	0x3c09b9a0	0.008406073
137	0x3c927eda	0.017882753
138	0x3c64e79c	0.013971236
139	0xbc051cf4	-0.008124579
140	0xbc661cbe	-0.014044939
141	0xbcd4a696	-0.02595834
142	0xbc5b5d91	-0.013389007
143	0x3a347e05	0.00068852335
144	0x3c02392c	0.007948201
145	0x3c854f50	0.01627317
146	0xba317040	-0.0006768741
147	0xb8ac7c9d	-8.22481e-05
148	0xbc5f3de7	-0.0136255985
149	0xbc173910	-0.009229913
150	0x392e283c	0.00016608922
151	0xbc966748	-0.018359795
152	0xbc30eb04	-0.01079822
153	0xbc599149	-0.013279268
154	0xbb8d67a9	-0.004315336
155	0x3c6bacb9	0.014384442
156	0x3c59b453	0.013287622
157	0x3cbba0ef	0.022903888
158	0x3c979a3b	0.01850616
159	0xbc987311	-0.018609555
160	0xbc2fa74c	-0.010721039
161	0xbc46fab0	-0.0121447295
162	0xbc3f571a	-0.0116784815
163	0xbb82e96f	-0.0039951126
164	0xbc029104	-0.007969145
165	0x3c369b1d	0.01114538
166	0x3ae83a56	0.0017717581
167	0xbc0079af	-0.007841512
168	0xbc0d39b4	-0.0086197145
169	0x3c6e7a6f	0.014555558
170	0xbb0e3cf0	-0.0021703802
171	0xbbc9482e	-0.0061426377
172	0xbc9dd3a0	-0.01926595
173	0xbb5df3eb	-0.003386731
174	0x3bc8502e	0.006113074
175	0x3c2e3c4e	0.010634495
176	0x3c5ee371	0.013604031
177	0x3cb83f41	0.0224911
178	0x3c5e3767	0.013563014
179	0xbcc91fe0	-0.024551332
180	0xbc1eed86	-0.009700185
181	0xbcb40306	-0.021974098
182	0xbca1c40d	-0.019746805
183	0xbc99a04b	-0.018753191
184	0xbbd022e3	-0.006351815
185	0xbb249761	-0.0025114643
186	0x3b931e25	0.0044896775
187	0xbb8488a9	-0.0040446115
188	0xbbb41052	-0.0054951096
189	0x3c963bc8	0.018339053
190	0xbc510860	-0.012758344
191	0x3ae29fc1	0.0017290042
192	0xbb804018	-0.0039138906
193	0xbb1e539e	-0.0024158726
194	0xb9f829ac	-0.00047333294
195	0x3c106ccf	0.0088150045
196	0x3cecfd3b	0.028929343
197	0x3cbbe0ee	0.022934403
198	0x3c8712d4	0.01648847
199	0xbcb75c40	-0.022382855
200	0xbcbb2d4c	-0.022848748
201	0xbc9ba9d6	-0.019001883
202	0xbbba75c7	-0.0056903097
203	0x39bf62aa	0.0003650387
204	0x3b7a65ab	0.0038207571
205	0x3bd72422	0.0065655867
206	0x3a66c5c5	0.00088032737
207	0x3b33acd4	0.0027416246
208	0x3c0906db	0.008363451
209	0x3c130cda	0.008975232
210	0xbb9e1372	-0.0048240954
211	0x3a542dae	0.0008093965
212	0x3becb601	0.007223845
213	0x3b6c8f79	0.0036096259
214	0xbaf40f94	-0.0018620365
215	0x3b8861b9	0.00416204
216	0x3c7aa6fd	0.015298602
217	0x3cb7e784	0.022449262
218	0x3b95d056	0.0045719547
219	0xbc548e91	-0.012973444
220	0xbcc5a6e9	-0.02412744
221	0xbc927074	-0.017875887
222	0xbca9ecc3	-0.02074278
223	0xbc5bdc18	-0.013419174
224	0xbbbe0866	-0.005799341
225	0xbbdc1d62	-0.00671737
226	0xbb6da1f6	-0.0036259866
227	0x3c83fb49	0.016111033
228	0x3cbdbb37	0.02316056
229	0x3cc0f717	0.023555322
230	0x3c544c16	0.012957593
231	0x3b2dd907	0.0026527063
232	0x3c8b8832	0.017032716
233	0x3b8d7453	0.0043168454
234	0x3abc50eb	0.0014367377
235	0x3c7bce99	0.015369081
236	0x3c61dab0	0.013785049
237	0x3c09eef1	0.0084187845
238	0x3c58f363	0.013241622
239	0xbc7b3b8d	-0.015334022
240	0xbc11e272	-0.008904086
241	0xbc8c1abe	-0.017102595
242	0xbcbb580e	-0.022869136
243	0xbb784f29	-0.003788898
244	0xbc3281f4	-0.010895241
245	0x3c252de8	0.010081746
246	0xbbb8a6aa	-0.0056351023
247	0x3bd835a7	0.0065981927
248	0x3cfb988e	0.030712392
249	0x3cab9327	0.020944191
250	0xbb0ba46c	-0.002130772
251	0x3c676b4e	0.0141247045
252	0x3c8b135a	0.016977001
253	0xbbadb53c	-0.005301146
254	0x390fa514	0.00013699039
255	0x3c61b6d6	0.013776502

fc.1.bias f4 [6]
0	0xbc84f246	-0.016228806
1	0x3c74dae1	0.014944763
2	0x3c9105ab	0.017702898
3	0xbc8064db	-0.015673092
4	0x3b7948ee	0.0038037854
5	0x3b9e4157	0.0048295665
